app/src/main/ml/BMI_model (1).tflite (tflite, 1788 bytes, 2 tensors)

sequential/dense/MatMul f4 [10, 10]
00000000: 907e 343e 96cb 0b3f 357a 57be 41b7 6d3e
00000010: 6671 05be 0bb1 97bc e3c1 34be 5bef 1b3e
00000020: 1df1 47be bab7 e0be e4d5 80be 72f1 97bc
00000030: 13e8 993d e22c 89bc 52d9 d63e 9516 88be
00000040: f123 fdbd 88f2 d3be 5fb3 07bf 88c4 51be
00000050: 3ea1 6abe e55a 953c 096c 4ebe 3537 693e
00000060: fe49 0ebd 5a6b e7be 34df 0cbf a3fe bdbe
00000070: 971b a6be ca07 bfbd 6b52 ea3e f05c 4dbe
00000080: 77d1 aa3d 14c0 a5be 7e27 2a3d 8d45 043e
00000090: adad 8f3d e6a5 153e bcd4 e23e e1b6 97be
000000a0: 0623 e1be 8345 cdbe 1554 583e 153f debe
000000b0: 4b9a 93be 4195 a8bc 58ae 28bb 0cb0 8abd
000000c0: f097 083f f14c a5be aa67 b7be cb90 cebe
000000d0: 882f bb3e 883d 363e 9d31 5fbe 262a 013f
000000e0: f7e8 a33d 4820 333e 049b d13e be2a bebd
000000f0: d0ff a13c dae7 f43e 4ede 49bd 7ac4 9a3e
00000100: 8f16 d33e 4d62 9b3e a699 ca3d bd9e b23e
00000110: 8856 89be c73e 7bbe 4995 75be 57dc 163c
00000120: f5f4 4abf c1b5 eb3e 60a8 4abe bd37 0dbf
00000130: 6bc1 103f a2c7 443d 72ae 323e d237 b8be
00000140: ad87 f1be 9b3e 58be b81b 863d 3ecd fd3d
00000150: 942c 95be 7e71 41be b364 c53e bc9b 2abe
00000160: e839 24be 5141 d4be 75d6 523c 44de b53e
00000170: 50ce 9a3e 56bd a6be c352 a6bd 27b0 993e
00000180: 5284 8abe 6355 073f 3a7c b83d fe25 02bf
0.17626405 0.5460752 -0.21042712 0.23214437 -0.1303154 -0.018517038 -0.17652087 0.15228026
-0.19525571 -0.43890172 -0.25163186 -0.018547747 0.07514968 -0.016745035 0.41962677 -0.2657973
-0.12360371 -0.41395974 -0.53008074 -0.20485127 -0.22913072 0.018231818 -0.201584 0.22774966
-0.034738533 -0.4519909 -0.5502808 -0.37108335 -0.32442924 -0.093276575 0.45766005 -0.20054984
0.083407335 -0.32373106 0.04154157 0.12917157 0.07015548 0.14614066 0.44302928 -0.29631713
-0.43972033 -0.40092096 0.21125825 -0.43407503 -0.28828654 -0.020578982 -0.0025738683 -0.067718595
0.5335684 -0.32285264 -0.35821277 -0.40344843 0.365597 0.1779691 -0.2179627 0.5045494
0.08003419 0.17492783 0.4093858 -0.09285496 0.019775301 0.4783314 -0.049284272 0.30228025
0.41228148 0.30348435 0.09892587 0.34886733 -0.2682383 -0.24535666 -0.23982729 0.009207807
-0.79280025 0.46037105 -0.19790792 -0.55163175 0.5654513 0.048041947 0.17449358 -0.35980088
-0.47173825 -0.21117632 0.06548256 0.123926625 -0.29135573 -0.1889095 0.3855339 -0.1666097
-0.16037714 -0.41456082 0.012868513 0.35521138 0.3023553 -0.32566327 -0.08121254 0.30017206
-0.27054077 0.52864665 0.09008069 -0.5083922

sequential/dense_1/MatMul f4 [1, 10]
00000000: f18b 993e 9f4c 1f3f 2edd e6be 5577 58be
00000010: e8c3 7bbe 4342 bd3e dec2 24bf aad8 8c3e
00000020: bd35 d1be 3ba2 723e
0.2998958 0.6222629 -0.45090622 -0.21139272 -0.24586451 0.36964616 -0.64359844 0.27509052
-0.40861312 0.23694699
